…
/"},"executionInfo":{"elapsed":1069,"status":"ok","timestamp":1762742790478,"user":{"displayName":"김다봄","userId":"02209919459503367304"},"user_tz":-540},"id":"bZcZ_kwvSodr","outputId":"5b4af4af-54f2-42c9-f8ca-e0630915eb46"},"outputs":[{"output_type":"execute_result","data":{"text/plain":["==========================================================================================\n","Layer (type:depth-idx)                   Output Shape              Param #\n","==========================================================================================\n","ResNet                                   [100, 1000]               --\n","├─Conv2d: 1-1                            [100, 64, 56, 56]         9,408\n","├─BatchNorm2d: 1-2                       [100, 64, 56, 56]         128\n","├─ReLU: 1-3                              [100, 64, 56, 56]         --\n","├─MaxPool2d: 1-4                         [100, 64, 28, 28]         --\n","├─Sequential: 1-5                        [100, 64, 28, 28]         --\n","│    └─BasicBlock: 2-1                   [100, 64, 28, 28]         --\n","│    │    └─Conv2d: 3-1                  [100, 64, 28, 28]         36,864\n","│    │    └─BatchNorm2d: 3-2             [100, 64, 28, 28]         128\n","│    │    └─ReLU: 3-3                    [100, 64, 28, 28]         --\n","│    │    └─Conv2d: 3-4                  [100, 64, 28, 28]         36,864\n","│    │    └─BatchNorm2d: 3-5             [100, 64, 28, 28]         128\n","│    │    └─ReLU: 3-6                    [100, 64, 28, 28]         --\n","│    └─BasicBlock: 2-2                   [100, 64, 28, 28]         --\n","│    │    └─Conv2d: 3-7                  [100, 64, 28, 28]         36,864\n","│    │    └─BatchNorm2d: 3-8             [100, 64, 28, 28]         128\n","│    │    └─ReLU: 3-9                    [100, 64, 28, 28]         --\n","│    │    └─Conv2d: 3-10                 [100, 64, 28, 28]         36,864\n","│    │    └─BatchNorm2d: 3-11            [100, 64, 28, 28]         128\n","│    │    └─ReLU: 3-12                   [100, 64, 28, 28]         --\n","├─Sequential: 1-6                        [100, 128, 14, 14]        --\n","│    └─BasicBlock: 2-3                   [100, 128, 14, 14]        --\n","│    │    └─Conv2d: 3-13                 [100, 128, 14, 14]        73,728\n","│    │    └─BatchNorm2d: 3-14            [100, 128, 14, 14]        256\n","│    │    └─ReLU: 3-15                   [100, 128, 14, 14]        --\n","│    │    └─Conv2d: 3-16                 [100, 128, 14, 14]        147,456\n","│    │    └─BatchNorm2d: 3-17            [100, 128, 14, 14]        256\n","│    │    └─Sequential: 3-18             [100, 128, 14, 14]        8,448\n","│    │    └─ReLU: 3-19                   [100, 128, 14, 14]        --\n","│    └─BasicBlock: 2-4                   [100, 128, 14, 14]        --\n","│    │    └─Conv2d: 3-20                 [100, 128, 14, 14]        147,456\n","│    │    └─BatchNorm2d: 3-21            [100, 128, 14, 14]        256\n","│    │    └─ReLU: 3-22                   [100, 128, 14, 14]        --\n","│    │    └─Conv2d: 3-23                 [100, 128, 14, 14]        147,456\n","│    │    └─BatchNorm2d: 3-24            [100, 128, 14, 14]        256\n","│    │    └─ReLU: 3-25                   [100, 128, 14, 14]        --\n","├─Sequential: 1-7                        [100, 256, 7, 7]          --\n","│    └─BasicBlock: 2-5                   [100, 256, 7, 7]          --\n","│    │    └─Conv2d: 3-26                 [100, 256, 7, 7]          294,912\n","│    │    └─BatchNorm2d: 3-27            [100, 256, 7, 7]          512\n","│    │    └─ReLU: 3-28                   [100, 256, 7, 7]          --\n","│    │    └─Conv2d: 3-29                 [100, 256, 7, 7]          589,824\n","│    │    └─BatchNorm2d: 3-30            [100, 256, 7, 7]          512\n","│    │    └─Sequential: 3-31             [100, 256, 7, 7]          33,280\n","│    │    └─ReLU: 3-32                   [100, 256, 7, 7]          --\n","│    └─BasicBlock: 2-6                   [100, 256, 7, 7]          --\n","│    │    └─Conv2d: 3-33                 [100, 256, 7, 7]          589,824\n","│    │    └─BatchNorm2d: 3-34            [100, 256, 7, 7]          512\n","│    │    └─ReLU: 3-35                   [100, 256, 7, 7]          --\n","│    │    └─Conv2d: 3-36                 [100, 256, 7, 7]          589,824\n","│    │    └─BatchNorm2d: 3-37            [100, 256, 7, 7]          512\n","│    │    └─ReLU: 3-38                   [100, 256, 7, 7]          --\n","├─Sequential: 1-8                        [100, 512, 4, 4]          --\n","│    └─BasicBlock: 2-7                   [100, 512, 4, 4]          --\n","│    │    └─Conv2d: 3-39                 [100, 512, 4, 4]          1,179,648\n","│    │    └─BatchNorm2d: 3-40            [100, 512, 4, 4]          1,024\n","│    │    └─ReLU: 3-41                   [100, 512, 4, 4]          --\n","│    │    └─Conv2d: 3-42                 [100, 512, 4, 4]          2,359,296\n","│    │    └─BatchNorm2d: 3-43            [100, 512, 4, 4]          1,024\n","│    │    └─Sequential: 3-44             [100, 512, 4, 4]          132,096\n","│    │    └─ReLU: 3-45                   [100, 512, 4, 4]          --\n","│    └─BasicBlock: 2-8                   [100, 512, 4, 4]          --\n","│    │    └─Conv2d: 3-46                 [100, 512, 4, 4]          2,359,296\n","│    │    └─BatchNorm2d: 3-47            [100, 512, 4, 4]          1,024\n","│    │    └─ReLU: 3-48                   [100, 512, 4, 4]          --\n","│    │    └─Conv2d: 3-49                 [100, 512, 4, 4]          2,359,296\n","│    │    └─BatchNorm2d: 3-50            [100, 512, 4, 4]          1,024\n","│    │    └─ReLU: 3-51                   [100, 512, 4, 4]          --\n","├─AdaptiveAvgPool2d: 1-9                 [100, 512, 1, 1]          --\n","├─Linear: 1-10                           [100, 1000]               513,000\n","==========================================================================================\n","Total params: 11,689,512\n","Trainable params: 11,689,512\n","Non-trainable params: 0\n","Total mult-adds (Units.GIGABYTES): 48.54\n","==========================================================================================\n","Input size (MB): 15.05\n","Forward/backward pass size (MB): 1009.64\n"
…
,"executionInfo":{"elapsed":241,"status":"ok","timestamp":1758856513669,"user":{"displayName":"주식회사한시경","userId":"01036671795204052858"},"user_tz":-540},"id":"LTdygZ-o6yXa","outputId":"f3920065-d121-498f-c1bc-546487b14fe7"},"outputs":[{"output_type":"execute_result","data":{"text/plain":["==========================================================================================\n","Layer (type:depth-idx)                   Output Shape              Param #\n","==========================================================================================\n","ResNet                                   [100, 10]                 --\n","├─Conv2d: 1-1                            [100, 64, 112, 112]       9,408\n","├─BatchNorm2d: 1-2                       [100, 64, 112, 112]       128\n","├─ReLU: 1-3                              [100, 64, 112, 112]       --\n","├─MaxPool2d: 1-4                         [100, 64, 56, 56]         --\n","├─Sequential: 1-5                        [100, 64, 56, 56]         --\n","│    └─BasicBlock: 2-1                   [100, 64, 56, 56]         --\n","│    │    └─Conv2d: 3-1                  [100, 64, 56, 56]         36,864\n","│    │    └─BatchNorm2d: 3-2             [100, 64, 56, 56]         128\n","│    │    └─ReLU: 3-3                    [100, 64, 56, 56]         --\n","│    │    └─Conv2d: 3-4                  [100, 64, 56, 56]         36,864\n","│    │    └─BatchNorm2d: 3-5             [100, 64, 56, 56]         128\n","│    │    └─ReLU: 3-6                    [100, 64, 56, 56]         --\n","│    └─BasicBlock: 2-2                   [100, 64, 56, 56]         --\n","│    │    └─Conv2d: 3-7                  [100, 64, 56, 56]         36,864\n","│    │    └─BatchNorm2d: 3-8             [100, 64, 56, 56]         128\n","│    │    └─ReLU: 3-9                    [100, 64, 56, 56]         --\n","│    │    └─Conv2d: 3-10                 [100, 64, 56, 56]         36,864\n","│    │    └─BatchNorm2d: 3-11            [100, 64, 56, 56]         128\n","│    │    └─ReLU: 3-12                   [100, 64, 56, 56]         --\n","├─Sequential: 1-6                        [100, 128, 28, 28]        --\n","│    └─BasicBlock: 2-3                   [100, 128, 28, 28]        --\n","│    │    └─Conv2d: 3-13                 [100, 128, 28, 28]        73,728\n","│    │    └─BatchNorm2d: 3-14            [100, 128, 28, 28]        256\n","│    │    └─ReLU: 3-15                   [100, 128, 28, 28]        --\n","│    │    └─Conv2d: 3-16                 [100, 128, 28, 28]        147,456\n","│    │    └─BatchNorm2d: 3-17            [100, 128, 28, 28]        256\n","│    │    └─Sequential: 3-18             [100, 128, 28, 28]        8,448\n","│    │    └─ReLU: 3-19                   [100, 128, 28, 28]        --\n","│    └─BasicBlock: 2-4                   [100, 128, 28, 28]        --\n","│    │    └─Conv2d: 3-20                 [100, 128, 28, 28]        147,456\n","│    │    └─BatchNorm2d: 3-21            [100, 128, 28, 28]        256\n","│    │    └─ReLU: 3-22                   [100, 128, 28, 28]        --\n","│    │    └─Conv2d: 3-23                 [100, 128, 28, 28]        147,456\n","│    │    └─BatchNorm2d: 3-24            [100, 128, 28, 28]        256\n","│    │    └─ReLU: 3-25                   [100, 128, 28, 28]        --\n","├─Sequential: 1-7                        [100, 256, 14, 14]        --\n","│    └─BasicBlock: 2-5                   [100, 256, 14, 14]        --\n","│    │    └─Conv2d: 3-26                 [100, 256, 14, 14]        294,912\n","│    │    └─BatchNorm2d: 3-27            [100, 256, 14, 14]        512\n","│    │    └─ReLU: 3-28                   [100, 256, 14, 14]        --\n","│    │    └─Conv2d: 3-29                 [100, 256, 14, 14]        589,824\n","│    │    └─BatchNorm2d: 3-30            [100, 256, 14, 14]        512\n","│    │    └─Sequential: 3-31             [100, 256, 14, 14]        33,280\n","│    │    └─ReLU: 3-32                   [100, 256, 14, 14]        --\n","│    └─BasicBlock: 2-6                   [100, 256, 14, 14]        --\n","│    │    └─Conv2d: 3-33                 [100, 256, 14, 14]        589,824\n","│    │    └─BatchNorm2d: 3-34            [100, 256, 14, 14]        512\n","│    │    └─ReLU: 3-35                   [100, 256, 14, 14]        --\n","│    │    └─Conv2d: 3-36                 [100, 256, 14, 14]        589,824\n","│    │    └─BatchNorm2d: 3-37            [100, 256, 14, 14]        512\n","│    │    └─ReLU: 3-38                   [100, 256, 14, 14]        --\n","├─Sequential: 1-8                        [100, 512, 7, 7]          --\n","│    └─BasicBlock: 2-7                   [100, 512, 7, 7]          --\n","│    │    └─Conv2d: 3-39                 [100, 512, 7, 7]          1,179,648\n","│    │    └─BatchNorm2d: 3-40            [100, 512, 7, 7]          1,024\n","│    │    └─ReLU: 3-41                   [100, 512, 7, 7]          --\n","│    │    └─Conv2d: 3-42                 [100, 512, 7, 7]          2,359,296\n","│    │    └─BatchNorm2d: 3-43            [100, 512, 7, 7]          1,024\n","│    │    └─Sequential: 3-44             [100, 512, 7, 7]          132,096\n","│    │    └─ReLU: 3-45                   [100, 512, 7, 7]          --\n","│    └─BasicBlock: 2-8                   [100, 512, 7, 7]          --\n","│    │    └─Conv2d: 3-46                 [100, 512, 7, 7]          2,359,296\n","│    │    └─BatchNorm2d: 3-47            [100, 512, 7, 7]          1,024\n","│    │    └─ReLU: 3-48                   [100, 512, 7, 7]          --\n","│    │    └─Conv2d: 3-49                 [100, 512, 7, 7]          2,359,296\n","│    │    └─BatchNorm2d: 3-50            [100, 512, 7, 7]          1,024\n","│    │    └─ReLU: 3-51                   [100, 512, 7, 7]          --\n","├─AdaptiveAvgPool2d: 1-9                 [100, 512, 1, 1]          --\n","├─Linear: 1-10                           [100, 10]                 5,130\n","==========================================================================================\n","Total params: 11,181,642\n","Trainable params: 11,181,642\n","Non-trainable params: 0\n","Total mult-adds (Units.GIGABYTES): 181.36\n","==========================================================================================\n","Input size (MB): 60.21\n","Forward/backward pass size (MB): 3973.95\n
…
},"executionInfo":{"elapsed":52,"status":"ok","timestamp":1758872274196,"user":{"displayName":"주식회사한시경","userId":"01036671795204052858"},"user_tz":-540},"id":"CWnIZlefepwp","outputId":"512c2a13-2e31-4057-a91b-71d470053b97"},"outputs":[{"output_type":"execute_result","data":{"text/plain":["==========================================================================================\n","Layer (type:depth-idx)                   Output Shape              Param #\n","==========================================================================================\n","ResNet                                   [100, 10]                 --\n","├─Conv2d: 1-1                            [100, 64, 56, 56]         9,408\n","├─BatchNorm2d: 1-2                       [100, 64, 56, 56]         128\n","├─ReLU: 1-3                              [100, 64, 56, 56]         --\n","├─MaxPool2d: 1-4                         [100, 64, 28, 28]         --\n","├─Sequential: 1-5                        [100, 64, 28, 28]         --\n","│    └─BasicBlock: 2-1                   [100, 64, 28, 28]         --\n","│    │    └─Conv2d: 3-1                  [100, 64, 28, 28]         36,864\n","│    │    └─BatchNorm2d: 3-2             [100, 64, 28, 28]         128\n","│    │    └─ReLU: 3-3                    [100, 64, 28, 28]         --\n","│    │    └─Conv2d: 3-4                  [100, 64, 28, 28]         36,864\n","│    │    └─BatchNorm2d: 3-5             [100, 64, 28, 28]         128\n","│    │    └─ReLU: 3-6                    [100, 64, 28, 28]         --\n","│    └─BasicBlock: 2-2                   [100, 64, 28, 28]         --\n","│    │    └─Conv2d: 3-7                  [100, 64, 28, 28]         36,864\n","│    │    └─BatchNorm2d: 3-8             [100, 64, 28, 28]         128\n","│    │    └─ReLU: 3-9                    [100, 64, 28, 28]         --\n","│    │    └─Conv2d: 3-10                 [100, 64, 28, 28]         36,864\n","│    │    └─BatchNorm2d: 3-11            [100, 64, 28, 28]         128\n","│    │    └─ReLU: 3-12                   [100, 64, 28, 28]         --\n","├─Sequential: 1-6                        [100, 128, 14, 14]        --\n","│    └─BasicBlock: 2-3                   [100, 128, 14, 14]        --\n","│    │    └─Conv2d: 3-13                 [100, 128, 14, 14]        73,728\n","│    │    └─BatchNorm2d: 3-14            [100, 128, 14, 14]        256\n","│    │    └─ReLU: 3-15                   [100, 128, 14, 14]        --\n","│    │    └─Conv2d: 3-16                 [100, 128, 14, 14]        147,456\n","│    │    └─BatchNorm2d: 3-17            [100, 128, 14, 14]        256\n","│    │    └─Sequential: 3-18             [100, 128, 14, 14]        8,448\n","│    │    └─ReLU: 3-19                   [100, 128, 14, 14]        --\n","│    └─BasicBlock: 2-4                   [100, 128, 14, 14]        --\n","│    │    └─Conv2d: 3-20                 [100, 128, 14, 14]        147,456\n","│    │    └─BatchNorm2d: 3-21            [100, 128, 14, 14]        256\n","│    │    └─ReLU: 3-22                   [100, 128, 14, 14]        --\n","│    │    └─Conv2d: 3-23                 [100, 128, 14, 14]        147,456\n","│    │    └─BatchNorm2d: 3-24            [100, 128, 14, 14]        256\n","│    │    └─ReLU: 3-25                   [100, 128, 14, 14]        --\n","├─Sequential: 1-7                        [100, 256, 7, 7]          --\n","│    └─BasicBlock: 2-5                   [100, 256, 7, 7]          --\n","│    │    └─Conv2d: 3-26                 [100, 256, 7, 7]          294,912\n","│    │    └─BatchNorm2d: 3-27            [100, 256, 7, 7]          512\n","│    │    └─ReLU: 3-28                   [100, 256, 7, 7]          --\n","│    │    └─Conv2d: 3-29                 [100, 256, 7, 7]          589,824\n","│    │    └─BatchNorm2d: 3-30            [100, 256, 7, 7]          512\n","│    │    └─Sequential: 3-31             [100, 256, 7, 7]          33,280\n","│    │    └─ReLU: 3-32                   [100, 256, 7, 7]          --\n","│    └─BasicBlock: 2-6                   [100, 256, 7, 7]          --\n","│    │    └─Conv2d: 3-33                 [100, 256, 7, 7]          589,824\n","│    │    └─BatchNorm2d: 3-34            [100, 256, 7, 7]          512\n","│    │    └─ReLU: 3-35                   [100, 256, 7, 7]          --\n","│    │    └─Conv2d: 3-36                 [100, 256, 7, 7]          589,824\n","│    │    └─BatchNorm2d: 3-37            [100, 256, 7, 7]          512\n","│    │    └─ReLU: 3-38                   [100, 256, 7, 7]          --\n","├─Sequential: 1-8                        [100, 512, 4, 4]          --\n","│    └─BasicBlock: 2-7                   [100, 512, 4, 4]          --\n","│    │    └─Conv2d: 3-39                 [100, 512, 4, 4]          1,179,648\n","│    │    └─BatchNorm2d: 3-40            [100, 512, 4, 4]          1,024\n","│    │    └─ReLU: 3-41                   [100, 512, 4, 4]          --\n","│    │    └─Conv2d: 3-42                 [100, 512, 4, 4]          2,359,296\n","│    │    └─BatchNorm2d: 3-43            [100, 512, 4, 4]          1,024\n","│    │    └─Sequential: 3-44             [100, 512, 4, 4]          132,096\n","│    │    └─ReLU: 3-45                   [100, 512, 4, 4]          --\n","│    └─BasicBlock: 2-8                   [100, 512, 4, 4]          --\n","│    │    └─Conv2d: 3-46                 [100, 512, 4, 4]          2,359,296\n","│    │    └─BatchNorm2d: 3-47            [100, 512, 4, 4]          1,024\n","│    │    └─ReLU: 3-48                   [100, 512, 4, 4]          --\n","│    │    └─Conv2d: 3-49                 [100, 512, 4, 4]          2,359,296\n","│    │    └─BatchNorm2d: 3-50            [100, 512, 4, 4]          1,024\n","│    │    └─ReLU: 3-51                   [100, 512, 4, 4]          --\n","├─AdaptiveAvgPool2d: 1-9                 [100, 512, 1, 1]          --\n","├─Linear: 1-10                           [100, 10]                 5,130\n","==========================================================================================\n","Total params: 11,181,642\n","Trainable params: 11,181,642\n","Non-trainable params: 0\n","Total mult-adds (Units.GIGABYTES): 48.49\n","==========================================================================================\n","Input size (MB): 15.05\n","Forward/backward pass size (MB): 1008.85\n"
…
,"executionInfo":{"elapsed":216,"status":"ok","timestamp":1758872431534,"user":{"displayName":"주식회사한시경","userId":"01036671795204052858"},"user_tz":-540},"id":"gSxeSTSxs-IU","outputId":"420624a1-e314-48d1-8fa9-fd682473dbe8"},"outputs":[{"output_type":"execute_result","data":{"text/plain":["==========================================================================================\n","Layer (type:depth-idx)                   Output Shape              Param #\n","==========================================================================================\n","VGG                                      [100, 10]                 --\n","├─Sequential: 1-1                        [100, 512, 7, 7]          --\n","│    └─Conv2d: 2-1                       [100, 64, 112, 112]       1,792\n","│    └─BatchNorm2d: 2-2                  [100, 64, 112, 112]       128\n","│    └─ReLU: 2-3                         [100, 64, 112, 112]       --\n","│    └─Conv2d: 2-4                       [100, 64, 112, 112]       36,928\n","│    └─BatchNorm2d: 2-5                  [100, 64, 112, 112]       128\n","│    └─ReLU: 2-6                         [100, 64, 112, 112]       --\n","│    └─MaxPool2d: 2-7                    [100, 64, 56, 56]         --\n","│    └─Conv2d: 2-8                       [100, 128, 56, 56]        73,856\n","│    └─BatchNorm2d: 2-9                  [100, 128, 56, 56]        256\n","│    └─ReLU: 2-10                        [100, 128, 56, 56]        --\n","│    └─Conv2d: 2-11                      [100, 128, 56, 56]        147,584\n","│    └─BatchNorm2d: 2-12                 [100, 128, 56, 56]        256\n","│    └─ReLU: 2-13                        [100, 128, 56, 56]        --\n","│    └─MaxPool2d: 2-14                   [100, 128, 28, 28]        --\n","│    └─Conv2d: 2-15                      [100, 256, 28, 28]        295,168\n","│    └─BatchNorm2d: 2-16                 [100, 256, 28, 28]        512\n","│    └─ReLU: 2-17                        [100, 256, 28, 28]        --\n","│    └─Conv2d: 2-18                      [100, 256, 28, 28]        590,080\n","│    └─BatchNorm2d: 2-19                 [100, 256, 28, 28]        512\n","│    └─ReLU: 2-20                        [100, 256, 28, 28]        --\n","│    └─Conv2d: 2-21                      [100, 256, 28, 28]        590,080\n","│    └─BatchNorm2d: 2-22                 [100, 256, 28, 28]        512\n","│    └─ReLU: 2-23                        [100, 256, 28, 28]        --\n","│    └─Conv2d: 2-24                      [100, 256, 28, 28]        590,080\n","│    └─BatchNorm2d: 2-25                 [100, 256, 28, 28]        512\n","│    └─ReLU: 2-26                        [100, 256, 28, 28]        --\n","│    └─MaxPool2d: 2-27                   [100, 256, 14, 14]        --\n","│    └─Conv2d: 2-28                      [100, 512, 14, 14]        1,180,160\n","│    └─BatchNorm2d: 2-29                 [100, 512, 14, 14]        1,024\n","│    └─ReLU: 2-30                        [100, 512, 14, 14]        --\n","│    └─Conv2d: 2-31                      [100, 512, 14, 14]        2,359,808\n","│    └─BatchNorm2d: 2-32                 [100, 512, 14, 14]        1,024\n","│    └─ReLU: 2-33                        [100, 512, 14, 14]        --\n","│    └─Conv2d: 2-34                      [100, 512, 14, 14]        2,359,808\n","│    └─BatchNorm2d: 2-35                 [100, 512, 14, 14]        1,024\n","│    └─ReLU: 2-36                        [100, 512, 14, 14]        --\n","│    └─Conv2d: 2-37                      [100, 512, 14, 14]        2,359,808\n","│    └─BatchNorm2d: 2-38                 [100, 512, 14, 14]        1,024\n","│    └─ReLU: 2-39                        [100, 512, 14, 14]        --\n","│    └─MaxPool2d: 2-40                   [100, 512, 7, 7]          --\n","│    └─Conv2d: 2-41                      [100, 512, 7, 7]          2,359,808\n","│    └─BatchNorm2d: 2-42                 [100, 512, 7, 7]          1,024\n","│    └─ReLU: 2-43                        [100, 512, 7, 7]          --\n","│    └─Conv2d: 2-44                      [100, 512, 7, 7]          2,359,808\n","│    └─BatchNorm2d: 2-45                 [100, 512, 7, 7]          1,024\n","│    └─ReLU: 2-46                        [100, 512, 7, 7]          --\n","│    └─Conv2d: 2-47                      [100, 512, 7, 7]          2,359,808\n","│    └─BatchNorm2d: 2-48                 [100, 512, 7, 7]          1,024\n","│    └─ReLU: 2-49                        [100, 512, 7, 7]          --\n","│    └─Conv2d: 2-50                      [100, 512, 7, 7]          2,359,808\n","│    └─BatchNorm2d: 2-51                 [100, 512, 7, 7]          1,024\n","│    └─ReLU: 2-52                        [100, 512, 7, 7]          --\n","├─Identity: 1-2                          [100, 512, 7, 7]          --\n","├─Sequential: 1-3                        [100, 10]                 --\n","│    └─Linear: 2-53                      [100, 4096]               102,764,544\n","│    └─ReLU: 2-54                        [100, 4096]               --\n","│    └─Dropout: 2-55                     [100, 4096]               --\n","│    └─Linear: 2-56                      [100, 4096]               16,781,312\n","│    └─ReLU: 2-57                        [100, 4096]               --\n","│    └─Dropout: 2-58                     [100, 4096]               --\n","│    └─Linear: 2-59                      [100, 10]                 40,970\n","==========================================================================================\n","Total params: 139,622,218\n","Trainable params: 139,622,218\n","Non-trainable params: 0\n","Total mult-adds (Units.GIGABYTES): 500.04\n","==========================================================================================\n","Input size (MB): 15.05\n","Forward/backward pass size (MB): 5947.40
…
"ok","timestamp":1758862546518,"user_tz":-540,"elapsed":423,"user":{"displayName":"주식회사한시경","userId":"01036671795204052858"}},"outputId":"4f2024ab-7ccd-44a6-9720-b4a20c2363a0","colab":{"base_uri":"https://localhost:8080/"}},"outputs":[{"output_type":"execute_result","data":{"text/plain":["==========================================================================================\n","Layer (type:depth-idx)                   Output Shape              Param #\n","==========================================================================================\n","VGG                                      [100, 1000]               --\n","├─Sequential: 1-1                        [100, 512, 7, 7]          --\n","│    └─Conv2d: 2-1                       [100, 64, 224, 224]       1,792\n","│    └─BatchNorm2d: 2-2                  [100, 64, 224, 224]       128\n","│    └─ReLU: 2-3                         [100, 64, 224, 224]       --\n","│    └─Conv2d: 2-4                       [100, 64, 224, 224]       36,928\n","│    └─BatchNorm2d: 2-5                  [100, 64, 224, 224]       128\n","│    └─ReLU: 2-6                         [100, 64, 224, 224]       --\n","│    └─MaxPool2d: 2-7                    [100, 64, 112, 112]       --\n","│    └─Conv2d: 2-8                       [100, 128, 112, 112]      73,856\n","│    └─BatchNorm2d: 2-9                  [100, 128, 112, 112]      256\n","│    └─ReLU: 2-10                        [100, 128, 112, 112]      --\n","│    └─Conv2d: 2-11                      [100, 128, 112, 112]      147,584\n","│    └─BatchNorm2d: 2-12                 [100, 128, 112, 112]      256\n","│    └─ReLU: 2-13                        [100, 128, 112, 112]      --\n","│    └─MaxPool2d: 2-14                   [100, 128, 56, 56]        --\n","│    └─Conv2d: 2-15                      [100, 256, 56, 56]        295,168\n","│    └─BatchNorm2d: 2-16                 [100, 256, 56, 56]        512\n","│    └─ReLU: 2-17                        [100, 256, 56, 56]        --\n","│    └─Conv2d: 2-18                      [100, 256, 56, 56]        590,080\n","│    └─BatchNorm2d: 2-19                 [100, 256, 56, 56]        512\n","│    └─ReLU: 2-20                        [100, 256, 56, 56]        --\n","│    └─Conv2d: 2-21                      [100, 256, 56, 56]        590,080\n","│    └─BatchNorm2d: 2-22                 [100, 256, 56, 56]        512\n","│    └─ReLU: 2-23                        [100, 256, 56, 56]        --\n","│    └─Conv2d: 2-24                      [100, 256, 56, 56]        590,080\n","│    └─BatchNorm2d: 2-25                 [100, 256, 56, 56]        512\n","│    └─ReLU: 2-26                        [100, 256, 56, 56]        --\n","│    └─MaxPool2d: 2-27                   [100, 256, 28, 28]        --\n","│    └─Conv2d: 2-28                      [100, 512, 28, 28]        1,180,160\n","│    └─BatchNorm2d: 2-29                 [100, 512, 28, 28]        1,024\n","│    └─ReLU: 2-30                        [100, 512, 28, 28]        --\n","│    └─Conv2d: 2-31                      [100, 512, 28, 28]        2,359,808\n","│    └─BatchNorm2d: 2-32                 [100, 512, 28, 28]        1,024\n","│    └─ReLU: 2-33                        [100, 512, 28, 28]        --\n","│    └─Conv2d: 2-34                      [100, 512, 28, 28]        2,359,808\n","│    └─BatchNorm2d: 2-35                 [100, 512, 28, 28]        1,024\n","│    └─ReLU: 2-36                        [100, 512, 28, 28]        --\n","│    └─Conv2d: 2-37                      [100, 512, 28, 28]        2,359,808\n","│    └─BatchNorm2d: 2-38                 [100, 512, 28, 28]        1,024\n","│    └─ReLU: 2-39                        [100, 512, 28, 28]        --\n","│    └─MaxPool2d: 2-40                   [100, 512, 14, 14]        --\n","│    └─Conv2d: 2-41                      [100, 512, 14, 14]        2,359,808\n","│    └─BatchNorm2d: 2-42                 [100, 512, 14, 14]        1,024\n","│    └─ReLU: 2-43                        [100, 512, 14, 14]        --\n","│    └─Conv2d: 2-44                      [100, 512, 14, 14]        2,359,808\n","│    └─BatchNorm2d: 2-45                 [100, 512, 14, 14]        1,024\n","│    └─ReLU: 2-46                        [100, 512, 14, 14]        --\n","│    └─Conv2d: 2-47                      [100, 512, 14, 14]        2,359,808\n","│    └─BatchNorm2d: 2-48                 [100, 512, 14, 14]        1,024\n","│    └─ReLU: 2-49                        [100, 512, 14, 14]        --\n","│    └─Conv2d: 2-50                      [100, 512, 14, 14]        2,359,808\n","│    └─BatchNorm2d: 2-51                 [100, 512, 14, 14]        1,024\n","│    └─ReLU: 2-52                        [100, 512, 14, 14]        --\n","│    └─MaxPool2d: 2-53                   [100, 512, 7, 7]          --\n","├─AdaptiveAvgPool2d: 1-2                 [100, 512, 7, 7]          --\n","├─Sequential: 1-3                        [100, 1000]               --\n","│    └─Linear: 2-54                      [100, 4096]               102,764,544\n","│    └─ReLU: 2-55                        [100, 4096]               --\n","│    └─Dropout: 2-56                     [100, 4096]               --\n","│    └─Linear: 2-57                      [100, 4096]               16,781,312\n","│    └─ReLU: 2-58                        [100, 4096]               --\n","│    └─Dropout: 2-59                     [100, 4096]               --\n","│    └─Linear: 2-60                      [100, 1000]               4,097,000\n","==========================================================================================\n","Total params: 143,678,248\n","Trainable params: 143,678,248\n","Non-trainable params: 0\n","Total mult-adds (Units.TERABYTES): 1.96\n","==========================================================================================\n","Input size (MB): 60.21\n","Forward/backward pass size (MB): 23770.71\
…
"ok","timestamp":1758862547149,"user_tz":-540,"elapsed":630,"user":{"displayName":"주식회사한시경","userId":"01036671795204052858"}},"outputId":"fe218cbd-2ce4-43e2-9e05-301be1fb66b5","colab":{"base_uri":"https://localhost:8080/"}},"outputs":[{"output_type":"execute_result","data":{"text/plain":["==========================================================================================\n","Layer (type:depth-idx)                   Output Shape              Param #\n","==========================================================================================\n","VGG                                      [100, 1000]               --\n","├─Sequential: 1-1                        [100, 512, 3, 3]          --\n","│    └─Conv2d: 2-1                       [100, 64, 112, 112]       1,792\n","│    └─BatchNorm2d: 2-2                  [100, 64, 112, 112]       128\n","│    └─ReLU: 2-3                         [100, 64, 112, 112]       --\n","│    └─Conv2d: 2-4                       [100, 64, 112, 112]       36,928\n","│    └─BatchNorm2d: 2-5                  [100, 64, 112, 112]       128\n","│    └─ReLU: 2-6                         [100, 64, 112, 112]       --\n","│    └─MaxPool2d: 2-7                    [100, 64, 56, 56]         --\n","│    └─Conv2d: 2-8                       [100, 128, 56, 56]        73,856\n","│    └─BatchNorm2d: 2-9                  [100, 128, 56, 56]        256\n","│    └─ReLU: 2-10                        [100, 128, 56, 56]        --\n","│    └─Conv2d: 2-11                      [100, 128, 56, 56]        147,584\n","│    └─BatchNorm2d: 2-12                 [100, 128, 56, 56]        256\n","│    └─ReLU: 2-13                        [100, 128, 56, 56]        --\n","│    └─MaxPool2d: 2-14                   [100, 128, 28, 28]        --\n","│    └─Conv2d: 2-15                      [100, 256, 28, 28]        295,168\n","│    └─BatchNorm2d: 2-16                 [100, 256, 28, 28]        512\n","│    └─ReLU: 2-17                        [100, 256, 28, 28]        --\n","│    └─Conv2d: 2-18                      [100, 256, 28, 28]        590,080\n","│    └─BatchNorm2d: 2-19                 [100, 256, 28, 28]        512\n","│    └─ReLU: 2-20                        [100, 256, 28, 28]        --\n","│    └─Conv2d: 2-21                      [100, 256, 28, 28]        590,080\n","│    └─BatchNorm2d: 2-22                 [100, 256, 28, 28]        512\n","│    └─ReLU: 2-23                        [100, 256, 28, 28]        --\n","│    └─Conv2d: 2-24                      [100, 256, 28, 28]        590,080\n","│    └─BatchNorm2d: 2-25                 [100, 256, 28, 28]        512\n","│    └─ReLU: 2-26                        [100, 256, 28, 28]        --\n","│    └─MaxPool2d: 2-27                   [100, 256, 14, 14]        --\n","│    └─Conv2d: 2-28                      [100, 512, 14, 14]        1,180,160\n","│    └─BatchNorm2d: 2-29                 [100, 512, 14, 14]        1,024\n","│    └─ReLU: 2-30                        [100, 512, 14, 14]        --\n","│    └─Conv2d: 2-31                      [100, 512, 14, 14]        2,359,808\n","│    └─BatchNorm2d: 2-32                 [100, 512, 14, 14]        1,024\n","│    └─ReLU: 2-33                        [100, 512, 14, 14]        --\n","│    └─Conv2d: 2-34                      [100, 512, 14, 14]        2,359,808\n","│    └─BatchNorm2d: 2-35                 [100, 512, 14, 14]        1,024\n","│    └─ReLU: 2-36                        [100, 512, 14, 14]        --\n","│    └─Conv2d: 2-37                      [100, 512, 14, 14]        2,359,808\n","│    └─BatchNorm2d: 2-38                 [100, 512, 14, 14]        1,024\n","│    └─ReLU: 2-39                        [100, 512, 14, 14]        --\n","│    └─MaxPool2d: 2-40                   [100, 512, 7, 7]          --\n","│    └─Conv2d: 2-41                      [100, 512, 7, 7]          2,359,808\n","│    └─BatchNorm2d: 2-42                 [100, 512, 7, 7]          1,024\n","│    └─ReLU: 2-43                        [100, 512, 7, 7]          --\n","│    └─Conv2d: 2-44                      [100, 512, 7, 7]          2,359,808\n","│    └─BatchNorm2d: 2-45                 [100, 512, 7, 7]          1,024\n","│    └─ReLU: 2-46                        [100, 512, 7, 7]          --\n","│    └─Conv2d: 2-47                      [100, 512, 7, 7]          2,359,808\n","│    └─BatchNorm2d: 2-48                 [100, 512, 7, 7]          1,024\n","│    └─ReLU: 2-49                        [100, 512, 7, 7]          --\n","│    └─Conv2d: 2-50                      [100, 512, 7, 7]          2,359,808\n","│    └─BatchNorm2d: 2-51                 [100, 512, 7, 7]          1,024\n","│    └─ReLU: 2-52                        [100, 512, 7, 7]          --\n","│    └─MaxPool2d: 2-53                   [100, 512, 3, 3]          --\n","├─AdaptiveAvgPool2d: 1-2                 [100, 512, 7, 7]          --\n","├─Sequential: 1-3                        [100, 1000]               --\n","│    └─Linear: 2-54                      [100, 4096]               102,764,544\n","│    └─ReLU: 2-55                        [100, 4096]               --\n","│    └─Dropout: 2-56                     [100, 4096]               --\n","│    └─Linear: 2-57                      [100, 4096]               16,781,312\n","│    └─ReLU: 2-58                        [100, 4096]               --\n","│    └─Dropout: 2-59                     [100, 4096]               --\n","│    └─Linear: 2-60                      [100, 1000]               4,097,000\n","==========================================================================================\n","Total params: 143,678,248\n","Trainable params: 143,678,248\n","Non-trainable params: 0\n","Total mult-adds (Units.GIGABYTES): 500.45\n","==========================================================================================\n","Input size (MB): 15.05\n","Forward/backward pass size (MB): 5948.19
…
